model.tflite (tflite, 102592 bytes, 25 tensors)

model_1/quant_features_dense/Tensordot/MatMul;model_1/quant_features_dense/LastValueQuant/FakeQuantWithMinMaxVars i1 [10, 98] scale=0.002102102 zero_point=0
000000 3b 2a 0c db 3a b6 15 3c 19 e4 f3 e6 25 3c 2c 1f
       0.12402401 0.08828828 0.025225222 -0.07777777 0.12192191 -0.15555555 0.04414414 0.12612611 0.052552547 -0.058858853 -0.027327325 -0.05465465 0.07777777 0.12612611 0.09249248 0.06516516
000010 07 fc ed f6 b5 eb 25 5b 58 e4 c9 df ab 3c 28 02
       0.014714713 -0.008408408 -0.039939936 -0.02102102 -0.15765764 -0.04414414 0.07777777 0.19129127 0.18498497 -0.058858853 -0.11561561 -0.06936936 -0.17867866 0.12612611 0.08408408 0.004204204
000020 2a bf 1e 2f 30 30 de 20 48 ed b3 ba 0b dc c3 ad
       0.08828828 -0.13663663 0.063063055 0.09879879 0.10090089 0.10090089 -0.07147147 0.06726726 0.15135133 -0.039939936 -0.16186185 -0.14714713 0.02312312 -0.07567567 -0.12822822 -0.17447446
000030 d9 92 4a 11 4c ff 3c cd ac e4 f1 46 e1 c6 07 f3
       -0.08198197 -0.23123121 0.15555555 0.035735734 0.15975975 -0.002102102 0.12612611 -0.1072072 -0.17657655 -0.058858853 -0.031531528 0.14714713 -0.06516516 -0.12192191 0.014714713 -0.027327325
000040 c4 bb 3d 10 19 f5 cb 23 00 dc f0 ca e6 cd 25 d9
       -0.12612611 -0.14504503 0.12822822 0.03363363 0.052552547 -0.02312312 -0.1114114 0.07357357 0.0 -0.07567567 -0.03363363 -0.11351351 -0.05465465 -0.1072072 0.07777777 -0.08198197
000050 f4 e8 4b 9d 2f b5 54 26 bc 54 a8 c7 bc 37 61 b9
       -0.025225222 -0.050450444 0.15765764 -0.2081081 0.09879879 -0.15765764 0.17657655 0.07987987 -0.14294294 0.17657655 -0.18498497 -0.11981981 -0.14294294 0.11561561 0.20390388 -0.14924924
000060 c5 ed 14 ea 02 35 34 33 28 ca 10 df 4d b7 02 ae
       -0.12402401 -0.039939936 0.04204204 -0.04624624 0.004204204 0.1114114 0.1093093 0.1072072 0.08408408 -0.11351351 0.03363363 -0.06936936 0.16186185 -0.15345344 0.004204204 -0.17237236
000070 51 15 27 a9 dd a7 f1 e9 d7 5b 1a c7 d0 bb 5c f9
       0.17027025 0.04414414 0.08198197 -0.18288286 -0.07357357 -0.18708707 -0.031531528 -0.048348345 -0.08618618 0.19129127 0.05465465 -0.11981981 -0.10090089 -0.14504503 0.19339338 -0.014714713
000080 0b 48 d4 f4 ca c4 0a 37 dc 46 f0 fd d4 4b ba 19
       0.02312312 0.15135133 -0.09249248 -0.025225222 -0.11351351 -0.12612611 0.02102102 0.11561561 -0.07567567 0.14714713 -0.03363363 -0.0063063055 -0.09249248 0.15765764 -0.14714713 0.052552547
000090 ca 06 3e 3c ce 1f 05 64 f6 b0 aa 24 d0 35 ca 19
       -0.11351351 0.012612611 0.13033032 0.12612611 -0.105105095 0.06516516 0.01051051 0.21021019 -0.02102102 -0.16816816 -0.18078077 0.07567567 -0.10090089 0.1114114 -0.11351351 0.052552547
0000a0 ba ea e7 1e ed fe 2b ac 18 ae e0 cd 9f f5 0a 37
       -0.14714713 -0.04624624 -0.052552547 0.063063055 -0.039939936 -0.004204204 0.090390384 -0.17657655 0.050450444 -0.17237236 -0.06726726 -0.1072072 -0.20390388 -0.02312312 0.02102102 0.11561561
0000b0 fe 22 57 b5 b0 3b 4e 53 2b bf 30 ea ad ff 55 b0
       -0.004204204 0.07147147 0.18288286 -0.15765764 -0.16816816 0.12402401 0.16396394 0.17447446 0.090390384 -0.13663663 0.10090089 -0.04624624 -0.17447446 -0.002102102 0.17867866 -0.16816816
0000c0 65 28 4f 0c e1 07 e4 03 05 4d c6 51 df 0d a4 0f
       0.2123123 0.08408408 0.16606605 0.025225222 -0.06516516 0.014714713 -0.058858853 0.0063063055 0.01051051 0.16186185 -0.12192191 0.17027025 -0.06936936 0.027327325 -0.19339338 0.031531528
0000d0 9d 5e ee cd c4 6d ec 17 f9 b8 28 1e 0b 41 57 4d
       -0.2081081 0.19759758 -0.037837833 -0.1072072 -0.12612611 0.2291291 -0.04204204 0.048348345 -0.014714713 -0.15135133 0.08408408 0.063063055 0.02312312 0.13663663 0.18288286 0.16186185
0000e0 b0 d9 cf dd 23 21 37 2d 38 bc 1c 9a b5 63 13 51
       -0.16816816 -0.08198197 -0.103002995 -0.07357357 0.07357357 0.06936936 0.11561561 0.09459458 0.117717706 -0.14294294 0.058858853 -0.2144144 -0.15765764 0.2081081 0.039939936 0.17027025
0000f0 0e f7 32 1f 52 28 1f 49 ee 2d e4 45 04 0b b3 c5
       0.029429426 -0.018918917 0.105105095 0.06516516 0.17237236 0.08408408 0.06516516 0.15345344 -0.037837833 0.09459458 -0.058858853 0.14504503 0.008408408 0.02312312 -0.16186185 -0.12402401

features_dense/bias i1 [10] scale=9.690213e-05 zero_point=4
000000 7f d3 d4 d7 54 c7 80 35 1b 30
       0.011918962 -0.0047482043 -0.004651302 -0.0043605957 0.0077521703 -0.00591103 -0.01279108 0.0047482043 0.002228749 0.0042636935

model_1/quant_Conv2D_Entry_1/Conv2D;model_1/quant_Conv2D_Entry_1/LastValueQuant/FakeQuantWithMinMaxVarsPerChannel i1 [16, 3, 3, 1]
000000 16 1f a6 81 69 34 26 3a 9c af 4c fa d0 29 22 0d
       22 31 -90 -127 105 52 38 58 -100 -81 76 -6 -48 41 34 13
000010 5d 81 7f 52 54 68 cf 7e 7d cc 0e 1c 81 e1 bc b2
       93 -127 127 82 84 104 -49 126 125 -52 14 28 -127 -31 -68 -78
000020 31 fc bc 71 cc 83 c5 e5 7f 2c 3d 1f ee 7f 7b da
       49 -4 -68 113 -52 -125 -59 -27 127 44 61 31 -18 127 123 -38
000030 15 85 2b fd c0 14 64 cc 02 47 18 6a 82 81 6b 1d
       21 -123 43 -3 -64 20 100 -52 2 71 24 106 -126 -127 107 29
000040 11 81 0e bc ef f8 23 7f 7a d7 0d 5a d9 81 bf 04
       17 -127 14 -68 -17 -8 35 127 122 -41 13 90 -39 -127 -65 4
000050 af ee b5 44 cb 81 a4 6c ac 5b 86 ef bb 6e 3c 7f
       -81 -18 -75 68 -53 -127 -92 108 -84 91 -122 -17 -69 110 60 127
000060 df 55 b1 7f 0b 73 ab 01 64 d6 9f 8d 48 7f 09 62
       -33 85 -79 127 11 115 -85 1 100 -42 -97 -115 72 127 9 98
000070 0d d2 ad 8e a4 6d 81 0d 3a 27 a8 1f 95 43 d6 4d
       13 -46 -83 -114 -92 109 -127 13 58 39 -88 31 -107 67 -42 77
000080 b0 ce ce 7f 38 98 55 f0 27 f2 24 a9 35 32 81 44
       -80 -50 -50 127 56 -104 85 -16 39 -14 36 -87 53 50 -127 68

model_1/quant_Conv2D_Entry_2/Conv2D;model_1/quant_Conv2D_Entry_2/LastValueQuant/FakeQuantWithMinMaxVarsPerChannel i1 [16, 3, 3, 16]
000000 57 ca d4 c8 54 d6 de ce 52 19 17 b3 5d a5 0b c4
       87 -54 -44 -56 84 -42 -34 -50 82 25 23 -77 93 -91 11 -60
000010 3f 0c d3 c4 6d 18 1c ff 38 64 a5 fb 63 64 eb 50
       63 12 -45 -60 109 24 28 -1 56 100 -91 -5 99 100 -21 80
000020 a2 ac f6 d2 3a 50 a3 f9 45 c1 c2 f8 26 e6 72 0e
       -94 -84 -10 -46 58 80 -93 -7 69 -63 -62 -8 38 -26 114 14
000030 a7 13 9e bf e5 d7 a7 32 cd 3a 20 e7 da b0 f5 81
       -89 19 -98 -65 -27 -41 -89 50 -51 58 32 -25 -38 -80 -11 -127
000040 43 23 f9 a9 3c 10 2f 5b bf 93 e1 dd 2e e2 c7 04
       67 35 -7 -87 60 16 47 91 -65 -109 -31 -35 46 -30 -57 4
000050 d4 d8 d7 a1 5e fc 0f 63 c0 8b 22 2c 64 da bd 14
       -44 -40 -41 -95 94 -4 15 99 -64 -117 34 44 100 -38 -67 20
000060 0f f9 45 bc e4 b1 dc 0e 05 85 3b 30 05 34 28 dc
       15 -7 69 -68 -28 -79 -36 14 5 -123 59 48 5 52 40 -36
000070 5c d1 0c 36 bb 9d 4b 64 64 a9 f1 38 b2 07 a1 8a
       92 -47 12 54 -69 -99 75 100 100 -87 -15 56 -78 7 -95 -118
000080 4a 65 95 8b 60 f3 b3 59 45 0c db 4f 41 13 d4 5c
       74 101 -107 -117 96 -13 -77 89 69 12 -37 79 65 19 -44 92
000090 a5 20 21 f9 e4 34 2c d2 43 53 20 65 3c f9 df d3
       -91 32 33 -7 -28 52 44 -46 67 83 32 101 60 -7 -33 -45
0000a0 17 8e 31 26 bf c8 59 b1 31 0c c9 f1 07 a1 81 16
       23 -114 49 38 -65 -56 89 -79 49 12 -55 -15 7 -95 -127 22
0000b0 3a b6 b7 55 e4 bb fa de d4 dc cf 00 14 04 3a 28
       58 -74 -73 85 -28 -69 -6 -34 -44 -36 -49 0 20 4 58 40
0000c0 cd e2 16 39 42 3e d1 fc d7 2b df f4 4e 00 94 04
       -51 -30 22 57 66 62 -47 -4 -41 43 -33 -12 78 0 -108 4
0000d0 d0 89 f7 25 3d bb b1 e3 4c 39 0e ff ad c5 9d 9d
       -48 -119 -9 37 61 -69 -79 -29 76 57 14 -1 -83 -59 -99 -99
0000e0 c5 04 b1 04 fb d2 95 52 37 c6 cb d5 e2 dd c0 e8
       -59 4 -79 4 -5 -46 -107 82 55 -58 -53 -43 -30 -35 -64 -24
0000f0 24 06 2f 56 d7 fe 5e fb ae ed c7 39 f4 b3 30 e6
       36 6 47 86 -41 -2 94 -5 -82 -19 -57 57 -12 -77 48 -26

model_1/quant_depthwise_conv2d_8/depthwise;model_1/quant_depthwise_conv2d_8/LastValueQuant/FakeQuantWithMinMaxVarsPerChannel i1 [1, 3, 3, 16]
000000 99 e8 27 d7 7c ae a2 f6 58 a8 2a fe 3c e3 4d 61
       -103 -24 39 -41 124 -82 -94 -10 88 -88 42 -2 60 -29 77 97
000010 19 9c a4 a9 0b 16 eb 01 22 95 62 bd 62 89 cf 09
       25 -100 -92 -87 11 22 -21 1 34 -107 98 -67 98 -119 -49 9
000020 05 f1 58 fc 6a 15 bb 24 ac b8 5c 4c e7 95 ee b5
       5 -15 88 -4 106 21 -69 36 -84 -72 92 76 -25 -107 -18 -75
000030 d7 5d 1c 33 23 4c 20 bb 48 ce 27 4f ad c9 c9 06
       -41 93 28 51 35 76 32 -69 72 -50 39 79 -83 -55 -55 6
000040 f9 b3 ce 09 ca 37 fd fa da 3d cd 66 58 95 81 dd
       -7 -77 -50 9 -54 55 -3 -6 -38 61 -51 102 88 -107 -127 -35
000050 f7 0f 3b 64 47 3d 31 4c 16 24 46 e8 db 96 cf 18
       -9 15 59 100 71 61 49 76 22 36 70 -24 -37 -106 -49 24
000060 ca 31 2b c1 e5 5a 41 4d d6 4c 9e 25 42 13 ab 11
       -54 49 43 -63 -27 90 65 77 -42 76 -98 37 66 19 -85 17
000070 f7 54 b5 19 3c 38 b7 52 e2 3a f3 b4 ef 9d 13 51
       -9 84 -75 25 60 56 -73 82 -30 58 -13 -76 -17 -99 19 81
000080 d5 b6 e5 cf b6 e0 08 16 d5 75 0d 2b ef 26 59 f7
       -43 -74 -27 -49 -74 -32 8 22 -43 117 13 43 -17 38 89 -9

model_1/quant_conv2d_8/Conv2D;model_1/quant_conv2d_8/LastValueQuant/FakeQuantWithMinMaxVarsPerChannel i1 [32, 1, 1, 16]
000000 6f 41 40 8f 7f e2 02 e8 a0 44 03 d4 55 0c f1 c8
       111 65 64 -113 127 -30 2 -24 -96 68 3 -44 85 12 -15 -56
000010 cf af b5 23 98 dd cb 7e ca 05 7f e5 0b a7 22 92
       -49 -81 -75 35 -104 -35 -53 126 -54 5 127 -27 11 -89 34 -110
000020 4d a9 25 61 7d 56 6e ef 31 4d ac b6 a6 7f f1 8d
       77 -87 37 97 125 86 110 -17 49 77 -84 -74 -90 127 -15 -115
000030 a8 2e 9f a9 d1 9c c8 be d5 07 46 1e 7f 27 55 5f
       -88 46 -97 -87 -47 -100 -56 -66 -43 7 70 30 127 39 85 95
000040 be d6 45 49 6e ee a0 20 f1 00 b6 0f 09 81 21 26
       -66 -42 69 73 110 -18 -96 32 -15 0 -74 15 9 -127 33 38
000050 30 e5 c8 2d 8d 0f 6c d6 47 b3 7f 6c 42 fd 5b 2c
       48 -27 -56 45 -115 15 108 -42 71 -77 127 108 66 -3 91 44
000060 aa a7 41 c4 81 c2 50 43 1f 65 c7 e7 23 d9 05 f3
       -86 -89 65 -60 -127 -62 80 67 31 101 -57 -25 35 -39 5 -13
000070 a6 81 97 2b b1 ab 34 d7 73 37 19 b7 66 2e 30 93
       -90 -127 -105 43 -79 -85 52 -41 115 55 25 -73 102 46 48 -109
000080 82 be 7f 42 38 01 f1 35 0e c0 de 2e 68 24 bb 8d
       -126 -66 127 66 56 1 -15 53 14 -64 -34 46 104 36 -69 -115
000090 0a 3a 0f 2b 7c 08 ac 0b c4 81 44 df d4 40 16 f3
       10 58 15 43 124 8 -84 11 -60 -127 68 -33 -44 64 22 -13
0000a0 4a fd d6 b5 38 30 9d cf 50 7f 1a 9d 49 0b 65 ab
       74 -3 -42 -75 56 48 -99 -49 80 127 26 -99 73 11 101 -85
0000b0 0d 16 d5 55 53 86 d8 16 a8 81 f7 fc 3e 08 cd 32
       13 22 -43 85 83 -122 -40 22 -88 -127 -9 -4 62 8 -51 50
0000c0 b9 44 14 0d b8 d0 df 2e e4 44 c6 dd 1f f8 37 7f
       -71 68 20 13 -72 -48 -33 46 -28 68 -58 -35 31 -8 55 127
0000d0 25 c4 7f 95 2f 38 db 03 ad 9a b0 fc f4 0e ef d9
       37 -60 127 -107 47 56 -37 3 -83 -102 -80 -4 -12 14 -17 -39
0000e0 53 34 4d b0 bf cf e6 40 9a 7e e6 81 04 4b 11 cf
       83 52 77 -80 -65 -49 -26 64 -102 126 -26 -127 4 75 17 -49
0000f0 5f 55 51 f2 50 65 14 7f cd 42 36 bd cd c4 15 a1
       95 85 81 -14 80 101 20 127 -51 66 54 -67 -51 -60 21 -95

model_1/quant_depthwise_conv2d_9/depthwise;model_1/quant_depthwise_conv2d_9/LastValueQuant/FakeQuantWithMinMaxVarsPerChannel i1 [1, 3, 3, 32]
000000 2a fd 03 12 d1 10 c6 eb f5 a0 e6 e1 34 4d 15 27
       42 -3 3 18 -47 16 -58 -21 -11 -96 -26 -31 52 77 21 39
000010 b0 ff 04 05 10 24 0c cf 48 e2 08 fc 0e fe d3 fd
       -80 -1 4 5 16 36 12 -49 72 -30 8 -4 14 -2 -45 -3
000020 18 3a f7 e2 f8 2d ba 1e 21 81 14 13 26 37 24 53
       24 58 -9 -30 -8 45 -70 30 33 -127 20 19 38 55 36 83
000030 16 eb 25 da f5 11 39 ed 16 ea 0c 34 0e f1 16 bb
       22 -21 37 -38 -11 17 57 -19 22 -22 12 52 14 -15 22 -69
000040 cf ef bf fd c6 01 c4 e7 ca 98 1d d0 f9 07 5a 1b
       -49 -17 -65 -3 -58 1 -60 -25 -54 -104 29 -48 -7 7 90 27
000050 ec 15 2f ff 44 19 0c 0d fb e1 15 30 ea da 1a 01
       -20 21 47 -1 68 25 12 13 -5 -31 21 48 -22 -38 26 1
000060 c0 dc eb 1a 04 1b c5 20 d4 00 ec ba 03 bf c8 4f
       -64 -36 -21 26 4 27 -59 32 -44 0 -20 -70 3 -65 -56 79
000070 0b f7 bc 14 3f cc cf b7 34 2d 09 36 39 0c 15 11
       11 -9 -68 20 63 -52 -49 -73 52 45 9 54 57 12 21 17
000080 15 e6 c9 0c f1 ca ee 2d 06 30 da ad df 30 ec 27
       21 -26 -55 12 -15 -54 -18 45 6 48 -38 -83 -33 48 -20 39
000090 f4 e6 bc f4 2b 34 dc b4 ef ee 1e d9 03 00 dd fd
       -12 -26 -68 -12 43 52 -36 -76 -17 -18 30 -39 3 0 -35 -3
0000a0 0e 45 fd 01 fc 29 a7 15 ce e9 b8 df 0d 4a d7 3d
       14 69 -3 1 -4 41 -89 21 -50 -23 -72 -33 13 74 -41 61
0000b0 eb ed d7 32 27 de 39 f5 e0 dc cd 4b fa f4 d5 3c
       -21 -19 -41 50 39 -34 57 -11 -32 -36 -51 75 -6 -12 -43 60
0000c0 26 35 ef 33 f0 25 dc 11 0d 36 2d 3c f8 24 1d 47
       38 53 -17 51 -16 37 -36 17 13 54 45 60 -8 36 29 71
0000d0 e4 07 f9 26 0d b6 f6 06 c7 58 44 18 fd 11 0c ba
       -28 7 -7 38 13 -74 -10 6 -57 88 68 24 -3 17 12 -70
0000e0 e8 e3 e2 46 da cb 3b de e6 44 e4 e3 d6 1c cb fb
       -24 -29 -30 70 -38 -53 59 -34 -26 68 -28 -29 -42 28 -53 -5
0000f0 00 1e bc df 15 d2 37 f6 f1 1e 2e 03 34 e3 d9 1a
       0 30 -68 -33 21 -46 55 -10 -15 30 46 3 52 -29 -39 26

model_1/quant_conv2d_9/Conv2D;model_1/quant_conv2d_9/LastValueQuant/FakeQuantWithMinMaxVarsPerChannel i1 [32, 1, 1, 32]
000000 af 6b 0b ad 44 4a 69 bd 4e c4 e1 65 28 7f 1c 62
       -81 107 11 -83 68 74 105 -67 78 -60 -31 101 40 127 28 98
000010 58 ed be 32 21 1b f9 d6 c0 63 73 02 ec 2d 67 68
       88 -19 -66 50 33 27 -7 -42 -64 99 115 2 -20 45 103 104
000020 a4 14 b1 09 01 f9 82 3a f4 68 bc 03 68 2b 65 ec
       -92 20 -79 9 1 -7 -126 58 -12 104 -68 3 104 43 101 -20
000030 de ee 81 35 fb 9e e2 0b be a5 d6 d8 14 0e b7 c1
       -34 -18 -127 53 -5 -98 -30 11 -66 -91 -42 -40 20 14 -73 -63
000040 bd 3e ab f8 5d 10 a5 e5 1f b8 51 09 34 6c 8c 2f
       -67 62 -85 -8 93 16 -91 -27 31 -72 81 9 52 108 -116 47
000050 69 94 81 67 5e cc 5c 9d 08 93 df c4 bf b8 31 bd
       105 -108 -127 103 94 -52 92 -99 8 -109 -33 -60 -65 -72 49 -67
000060 a5 fb 13 bc b0 a6 ce ed 83 10 02 81 1c 3a 8b 71
       -91 -5 19 -68 -80 -90 -50 -19 -125 16 2 -127 28 58 -117 113
000070 a8 c0 67 38 ee 10 05 b9 02 4b e5 d7 0d df ce 82
       -88 -64 103 56 -18 16 5 -71 2 75 -27 -41 13 -33 -50 -126
000080 0c 17 cd 74 55 6d c7 34 31 0c 50 c2 b4 61 9f 09
       12 23 -51 116 85 109 -57 52 49 12 80 -62 -76 97 -97 9
000090 9b c4 5f 60 2d 95 7f 07 18 08 47 dd ea 73 64 a2
       -101 -60 95 96 45 -107 127 7 24 8 71 -35 -22 115 100 -94
0000a0 aa fa a8 6c a5 6a e7 b9 c7 e0 bc 7b 9d 62 12 9f
       -86 -6 -88 108 -91 106 -25 -71 -57 -32 -68 123 -99 98 18 -97
0000b0 1d c8 f3 e6 2f 92 ae 6a d3 60 7f ac ea ad 51 65
       29 -56 -13 -26 47 -110 -82 106 -45 96 127 -84 -22 -83 81 101
0000c0 f9 26 0d b4 6c b9 15 ab 84 44 31 b5 89 71 bd 6f
       -7 38 13 -76 108 -71 21 -85 -124 68 49 -75 -119 113 -67 111
0000d0 a3 5f fe 7f 60 60 1f 47 b6 4b 28 5a 28 af 59 de
       -93 95 -2 127 96 96 31 71 -74 75 40 90 40 -81 89 -34
0000e0 2f d7 99 4e f0 a1 f4 cd 9e b7 7f 50 b1 3c 2d 64
       47 -41 -103 78 -16 -95 -12 -51 -98 -73 127 80 -79 60 45 100
0000f0 e5 16 38 e4 87 cc f4 a8 de c1 1c cc d7 1d 9a 3d
       -27 22 56 -28 -121 -52 -12 -88 -34 -63 28 -52 -41 29 -102 61

model_1/quant_Conv2D_0_part_2/Conv2D;model_1/quant_Conv2D_0_part_2/LastValueQuant/FakeQuantWithMinMaxVarsPerChannel i1 [32, 1, 1, 16]
000000 1a 1f 1e 1a 14 9a d5 a7 d4 ec b0 cd 62 01 7f cd
       26 31 30 26 20 -102 -43 -89 -44 -20 -80 -51 98 1 127 -51
000010 54 d9 32 14 d6 3b 3b 81 0b 31 f1 50 d7 9a d6 34
       84 -39 50 20 -42 59 59 -127 11 49 -15 80 -41 -102 -42 52
000020 14 99 9c 07 f7 c0 94 1f 90 7f 2e 9b 5f 1a a8 c3
       20 -103 -100 7 -9 -64 -108 31 -112 127 46 -101 95 26 -88 -61
000030 10 25 07 c0 46 41 9e bf ab ab 7a 3d b6 38 7f 88
       16 37 7 -64 70 65 -98 -65 -85 -85 122 61 -74 56 127 -120
000040 6d 43 01 6a 81 2b 9f a1 20 cc 3f 35 75 10 78 99
       109 67 1 106 -127 43 -97 -95 32 -52 63 53 117 16 120 -103
000050 dd a8 90 6c 95 1f 11 eb 81 a6 be 8a 4d 8f 1c 19
       -35 -88 -112 108 -107 31 17 -21 -127 -90 -66 -118 77 -113 28 25
000060 0d 23 af c8 bb 2f 69 81 9a 38 6d 09 de a9 e0 97
       13 35 -81 -56 -69 47 105 -127 -102 56 109 9 -34 -87 -32 -105
000070 53 31 81 1e 36 49 aa b3 3f 58 e3 3d cb 26 ee b9
       83 49 -127 30 54 73 -86 -77 63 88 -29 61 -53 38 -18 -71
000080 f2 9f 3f dc 1b cc 43 21 3d 76 81 91 fa 7c 30 0d
       -14 -97 63 -36 27 -52 67 33 61 118 -127 -111 -6 124 48 13
000090 37 dc 57 1b f8 69 53 ed 18 97 7a 81 57 0d 65 e8
       55 -36 87 27 -8 105 83 -19 24 -105 122 -127 87 13 101 -24
0000a0 14 81 27 a9 76 43 b2 c2 c4 f6 e3 6b 70 9b 22 23
       20 -127 39 -87 118 67 -78 -62 -60 -10 -29 107 112 -101 34 35
0000b0 8a c3 58 6c f6 e9 e5 12 43 20 7f af 49 d4 61 2e
       -118 -61 88 108 -10 -23 -27 18 67 32 127 -81 73 -44 97 46
0000c0 33 19 3a 97 da 41 3e 77 21 9c 2c 46 26 81 a7 ac
       51 25 58 -105 -38 65 62 119 33 -100 44 70 38 -127 -89 -84
0000d0 25 54 29 c0 08 d3 df 81 d8 8e 19 08 9e b4 e6 10
       37 84 41 -64 8 -45 -33 -127 -40 -114 25 8 -98 -76 -26 16
0000e0 65 fa d4 ef 82 d1 27 d0 f3 81 94 b2 ed 5c 6d c0
       101 -6 -44 -17 -126 -47 39 -48 -13 -127 -108 -78 -19 92 109 -64
0000f0 a9 ac 53 62 ee 08 aa fd 45 ff c0 29 ef 7f 34 eb
       -87 -84 83 98 -18 8 -86 -3 69 -1 -64 41 -17 127 52 -21

model_1/quant_depthwise_conv2d_10/depthwise;model_1/quant_depthwise_conv2d_10/LastValueQuant/FakeQuantWithMinMaxVarsPerChannel i1 [1, 3, 3, 32]
000000 63 43 f5 da b3 49 c6 28 27 ce d7 b2 38 04 68 be
       99 67 -11 -38 -77 73 -58 40 39 -50 -41 -78 56 4 104 -66
000010 cc a9 e6 1e 3f 08 f5 27 cf 14 91 4f 4d 29 d0 52
       -52 -87 -26 30 63 8 -11 39 -49 20 -111 79 77 41 -48 82
000020 62 78 0d 2e 48 b7 1e f9 a1 d0 e6 0b 74 61 35 fa
       98 120 13 46 72 -73 30 -7 -95 -48 -26 11 116 97 53 -6
000030 a9 a7 fb 3d 08 b4 bf 2e c2 cd 9f c0 20 e2 0f dc
       -87 -89 -5 61 8 -76 -65 46 -62 -51 -97 -64 32 -30 15 -36
000040 28 2c fd 04 f9 f6 cf 1a 3a e8 f3 af 48 48 1c 5e
       40 44 -3 4 -7 -10 -49 26 58 -24 -13 -81 72 72 28 94
000050 38 11 33 14 e0 cb a1 6f b2 42 10 f4 32 a7 aa 1e
       56 17 51 20 -32 -53 -95 111 -78 66 16 -12 50 -89 -86 30
000060 ef ef c8 2f ff 0f de f5 f1 2b ef ff 77 18 c5 5c
       -17 -17 -56 47 -1 15 -34 -11 -15 43 -17 -1 119 24 -59 92
000070 02 17 57 d6 bc 29 a8 04 a2 c7 cf 3e 4e f0 f6 d0
       2 23 87 -42 -68 41 -88 4 -94 -57 -49 62 78 -16 -10 -48
000080 7f ca 09 cb fa ee f0 ab ed ec c3 ef 35 b6 b5 63
       127 -54 9 -53 -6 -18 -16 -85 -19 -20 -61 -17 53 -74 -75 99
000090 64 35 42 ab c1 fe 06 4f d1 08 b1 ed c6 38 d9 23
       100 53 66 -85 -63 -2 6 79 -47 8 -79 -19 -58 56 -39 35
0000a0 08 c3 cd 11 5b 56 25 f4 b3 17 d2 d0 36 c6 eb 27
       8 -61 -51 17 91 86 37 -12 -77 23 -46 -48 54 -58 -21 39
0000b0 41 16 43 bb b9 ba c2 58 df 08 e9 10 a9 57 44 fb
       65 22 67 -69 -71 -70 -62 88 -33 8 -23 16 -87 87 68 -5
0000c0 59 e9 32 c5 fe 46 1b 97 ad 3a 27 45 c6 fb eb 4f
       89 -23 50 -59 -2 70 27 -105 -83 58 39 69 -58 -5 -21 79
0000d0 d7 14 0b 4b b8 b1 6c ce be 08 42 02 ba 2d 05 01
       -41 20 11 75 -72 -79 108 -50 -66 8 66 2 -70 45 5 1
0000e0 04 c8 a8 d1 bc d3 3d bb e1 48 d0 d1 bf 4e ea 2d
       4 -56 -88 -47 -68 -45 61 -69 -31 72 -48 -47 -65 78 -22 45
0000f0 43 a7 db ec 99 b6 f1 9b 9f c3 20 e7 95 25 d7 cd
       67 -89 -37 -20 -103 -74 -15 -101 -97 -61 32 -25 -107 37 -41 -51

model_1/quant_conv2d_10/Conv2D;model_1/quant_conv2d_10/LastValueQuant/FakeQuantWithMinMaxVarsPerChannel i1 [48, 1, 1, 32]
000000 cb c1 d8 ba af 39 f0 9d 2a e3 b0 7f 30 84 60 fc
       -53 -63 -40 -70 -81 57 -16 -99 42 -29 -80 127 48 -124 96 -4
000010 c8 74 a0 27 53 fb eb c3 e5 c8 d6 3f 5c e0 a4 22
       -56 116 -96 39 83 -5 -21 -61 -27 -56 -42 63 92 -32 -92 34
000020 39 42 bb 57 32 69 25 63 24 58 3a 56 e0 cb 2c 4b
       57 66 -69 87 50 105 37 99 36 88 58 86 -32 -53 44 75
000030 fd e4 41 b0 38 88 97 df 81 43 1c 66 62 c6 a5 03
       -3 -28 65 -80 56 -120 -105 -33 -127 67 28 102 98 -58 -91 3
000040 e7 2d dd 16 4b ff 0b d1 ff ab 2c df ec e2 45 d6
       -25 45 -35 22 75 -1 11 -47 -1 -85 44 -33 -20 -30 69 -42
000050 16 6c ca 76 7f 11 f0 57 41 8c 3a bf b0 1e a6 31
       22 108 -54 118 127 17 -16 87 65 -116 58 -65 -80 30 -90 49
000060 e8 4a fa 16 46 b8 f5 15 f2 fc 68 eb 26 c5 0b cd
       -24 74 -6 22 70 -72 -11 21 -14 -4 104 -21 38 -59 11 -51
000070 d2 2a 1b fb 39 3b c8 d8 7f 10 0e db 21 fc 55 fc
       -46 42 27 -5 57 59 -56 -40 127 16 14 -37 33 -4 85 -4
000080 2a 1d 05 d6 c4 24 1a 47 b9 f8 19 1d c0 b9 29 f6
       42 29 5 -42 -60 36 26 71 -71 -8 25 29 -64 -71 41 -10
000090 3e 0e 81 d1 3e 0a ea 4e 27 54 a3 9e 9f aa 9b 1d
       62 14 -127 -47 62 10 -22 78 39 84 -93 -98 -97 -86 -101 29
0000a0 38 6b 43 7f 4e b4 37 63 c7 1f b6 ea 41 ac 74 2f
       56 107 67 127 78 -76 55 99 -57 31 -74 -22 65 -84 116 47
0000b0 ff 21 95 50 16 c1 09 d1 c6 ff 63 b0 da 22 4e d3
       -1 33 -107 80 22 -63 9 -47 -58 -1 99 -80 -38 34 78 -45
0000c0 04 1c d6 f0 11 cc 3d ca 6c c3 e3 13 06 6f 3e d8
       4 28 -42 -16 17 -52 61 -54 108 -61 -29 19 6 111 62 -40
0000d0 4d a5 2d 25 64 f7 5d 32 13 19 8c a3 81 e6 a8 fa
       77 -91 45 37 100 -9 93 50 19 25 -116 -93 -127 -26 -88 -6
0000e0 4a 01 ec aa aa 61 5c 81 91 af 2a 4b 1d 2d 4f 4c
       74 1 -20 -86 -86 97 92 -127 -111 -81 42 75 29 45 79 76
0000f0 aa 9c d1 38 ec 1e f9 c5 2e 4b 10 97 bf 6a a8 ed
       -86 -100 -47 56 -20 30 -7 -59 46 75 16 -105 -65 106 -88 -19

model_1/quant_depthwise_conv2d_11/depthwise;model_1/quant_depthwise_conv2d_11/LastValueQuant/FakeQuantWithMinMaxVarsPerChannel i1 [1, 3, 3, 48]
000000 c1 0a f3 d9 e7 dd 14 cd f7 22 d1 b7 1a 34 b6 1d
       -63 10 -13 -39 -25 -35 20 -51 -9 34 -47 -73 26 52 -74 29
000010 02 e4 19 c2 16 22 69 25 d9 19 e8 20 0b 2f 03 d4
       2 -28 25 -62 22 34 105 37 -39 25 -24 32 11 47 3 -44
000020 d6 31 c9 3f df dc c4 1a e0 f6 45 5f 17 ae 06 c1
       -42 49 -55 63 -33 -36 -60 26 -32 -10 69 95 23 -82 6 -63
000030 28 ef c2 3c 01 34 14 d8 48 b1 df e8 00 ec 07 e7
       40 -17 -62 60 1 52 20 -40 72 -79 -33 -24 0 -20 7 -25
000040 fb a8 22 e8 ee 2f 2c c8 30 f0 e6 18 1f 2b d8 07
       -5 -88 34 -24 -18 47 44 -56 48 -16 -26 24 31 43 -40 7
000050 14 3a e7 27 04 0a ce e8 27 0f e4 4d 33 ae 47 81
       20 58 -25 39 4 10 -50 -24 39 15 -28 77 51 -82 71 -127
000060 cb 33 98 ee f2 ee f8 2b 23 cf 2c c4 ce 2c be d1
       -53 51 -104 -18 -14 -18 -8 43 35 -49 44 -60 -50 44 -66 -47
000070 18 10 c7 dc c1 11 58 eb ee 46 d8 04 00 30 e9 be
       24 16 -57 -36 -63 17 88 -21 -18 70 -40 4 0 48 -23 -66
000080 bb e8 ed 39 d0 b5 06 f4 e8 ef f7 34 b9 e6 1d d7
       -69 -24 -19 57 -48 -75 6 -12 -24 -17 -9 52 -71 -26 29 -41
000090 b5 54 ca 24 43 21 d8 1b 08 a7 34 c8 37 fd 67 e1
       -75 84 -54 36 67 33 -40 27 8 -89 52 -56 55 -3 103 -31
0000a0 d4 cd 12 20 23 1a 5b 0e dc 0e 34 13 f4 f9 24 d2
       -44 -51 18 32 35 26 91 14 -36 14 52 19 -12 -7 36 -46
0000b0 a2 28 e7 14 4b bc 11 c5 c0 1d 4b d2 43 eb 02 b8
       -94 40 -25 20 75 -68 17 -59 -64 29 75 -46 67 -21 2 -72
0000c0 2a 34 17 b4 41 d1 bf d9 fd dc 3d 08 30 c2 e3 1d
       42 52 23 -76 65 -47 -65 -39 -3 -36 61 8 48 -62 -29 29
0000d0 16 ac 1f 0e 32 dd 22 1b 14 3a 4c 0a a9 18 fc f0
       22 -84 31 14 50 -35 34 27 20 58 76 10 -87 24 -4 -16
0000e0 15 ee 08 be 09 b8 02 e3 d6 cd 53 b9 11 b3 c0 09
       21 -18 8 -66 9 -72 2 -29 -42 -51 83 -71 17 -77 -64 9
0000f0 07 16 f6 be 09 cc f1 c7 00 96 53 b6 01 c6 44 33
       7 22 -10 -66 9 -52 -15 -57 0 -106 83 -74 1 -58 68 51

model_1/quant_conv2d_11/Conv2D;model_1/quant_conv2d_11/LastValueQuant/FakeQuantWithMinMaxVarsPerChannel i1 [48, 1, 1, 48]
000000 72 d1 fe 90 3d bb 15 7f d2 d8 f1 79 f0 1c d8 fe
       114 -47 -2 -112 61 -69 21 127 -46 -40 -15 121 -16 28 -40 -2
000010 2a d6 0a 4c 26 12 f7 47 d5 f7 52 66 a8 95 a6 38
       42 -42 10 76 38 18 -9 71 -43 -9 82 102 -88 -107 -90 56
000020 ff 00 f8 d5 a9 25 2b 5b a6 36 b5 26 11 e8 ad 54
       -1 0 -8 -43 -87 37 43 91 -90 54 -75 38 17 -24 -83 84
000030 13 ef 97 3d 45 31 84 c1 3f 09 20 22 c5 9e 5e f5
       19 -17 -105 61 69 49 -124 -63 63 9 32 34 -59 -98 94 -11
000040 7f f8 b3 4c d1 c4 78 22 32 e5 d6 b7 df a6 01 b3
       127 -8 -77 76 -47 -60 120 34 50 -27 -42 -73 -33 -90 1 -77
000050 da 17 8f fd f4 fb da 40 55 5d fb 76 06 40 5e f3
       -38 23 -113 -3 -12 -5 -38 64 85 93 -5 118 6 64 94 -13
000060 5e 2c ba 2e 24 fc 37 e2 a2 a3 b7 02 d8 34 46 10
       94 44 -70 46 36 -4 55 -30 -94 -93 -73 2 -40 52 70 16
000070 33 42 25 56 e7 19 20 bc 06 eb e3 4c 22 b7 4c be
       51 66 37 86 -25 25 32 -68 6 -21 -29 76 34 -73 76 -66
000080 9b b9 a3 e1 bb e4 14 81 df 32 ad eb bb d6 1b 5c
       -101 -71 -93 -31 -69 -28 20 -127 -33 50 -83 -21 -69 -42 27 92
000090 18 40 48 21 9e 45 bd 68 f6 f2 77 d3 06 a8 50 fe
       24 64 72 33 -98 69 -67 104 -10 -14 119 -45 6 -88 80 -2
0000a0 38 ee 34 d5 2a 0e 22 25 9f b1 3d e4 81 d9 df 3d
       56 -18 52 -43 42 14 34 37 -97 -79 61 -28 -127 -39 -33 61
0000b0 02 a7 ca 98 c8 6d 51 cc 1b 3e ae 21 24 cd 69 cc
       2 -89 -54 -104 -56 109 81 -52 27 62 -82 33 36 -51 105 -52
0000c0 de 68 2f 1c ba 42 95 f8 cb b9 9a d4 50 85 35 05
       -34 104 47 28 -70 66 -107 -8 -53 -71 -102 -44 80 -123 53 5
0000d0 cf 3b 31 62 c6 0a 2b ed 27 45 bc 0f ec 49 3f fa
       -49 59 49 98 -58 10 43 -19 39 69 -68 15 -20 73 63 -6
0000e0 fb 72 8b f0 f5 e8 91 ae 2a 53 f9 fb ba 95 7f 81
       -5 114 -117 -16 -11 -24 -111 -82 42 83 -7 -5 -70 -107 127 -127
0000f0 34 2d 8c c5 91 cf 63 2a fd 82 a1 03 2c 41 a5 cf
       52 45 -116 -59 -111 -49 99 42 -3 -126 -95 3 44 65 -91 -49

model_1/quant_Conv2D_1_part_2/Conv2D;model_1/quant_Conv2D_1_part_2/LastValueQuant/FakeQuantWithMinMaxVarsPerChannel i1 [48, 1, 1, 32]
000000 40 fd d1 40 aa 0b f5 49 72 81 86 e5 f8 cf c5 bc
       64 -3 -47 64 -86 11 -11 73 114 -127 -122 -27 -8 -49 -59 -68
000010 c8 4a 22 c0 4c f9 c5 5c a7 78 11 7b 8f 05 1e 49
       -56 74 34 -64 76 -7 -59 92 -89 120 17 123 -113 5 30 73
000020 e5 9d 0b e3 1d 51 a0 81 d3 70 6b d2 6d 06 44 ba
       -27 -99 11 -29 29 81 -96 -127 -45 112 107 -46 109 6 68 -70
000030 98 00 e2 8a 1b bf bb 49 68 d4 f1 9f da 3a 26 a7
       -104 0 -30 -118 27 -65 -69 73 104 -44 -15 -97 -38 58 38 -89
000040 e5 5d 1b 07 61 8d ce 15 96 81 ea 01 d8 0d d2 cd
       -27 93 27 7 97 -115 -50 21 -106 -127 -22 1 -40 13 -46 -51
000050 0a f4 ed 0c 6b 66 30 ae fe 2f cc f9 d5 75 cb 8b
       10 -12 -19 12 107 102 48 -82 -2 47 -52 -7 -43 117 -53 -117
000060 ce bf b5 12 31 6a 36 34 9f 42 9f a3 ce 49 0f d5
       -50 -65 -75 18 49 106 54 52 -97 66 -97 -93 -50 73 15 -43
000070 4c 10 39 7c 2c 1b f7 f4 2d ec e6 c5 4f 13 43 81
       76 16 57 124 44 27 -9 -12 45 -20 -26 -59 79 19 67 -127
000080 42 12 12 89 31 10 15 96 52 f1 a7 5e 5d 46 4b 84
       66 18 18 -119 49 16 21 -106 82 -15 -89 94 93 70 75 -124
000090 a5 cf f0 9e b4 36 6b 46 88 2d 33 e8 7f 0f ce 48
       -91 -49 -16 -98 -76 54 107 70 -120 45 51 -24 127 15 -50 72
0000a0 c5 b1 a1 ae 8e d7 14 2e 98 51 b3 18 29 31 45 a6
       -59 -79 -95 -82 -114 -41 20 46 -104 81 -77 24 41 49 69 -90
0000b0 f7 61 3e ef 43 31 9a 43 7f 11 84 b0 5e 03 54 99
       -9 97 62 -17 67 49 -102 67 127 17 -124 -80 94 3 84 -103
0000c0 37 f4 8c f3 ff e8 21 c0 76 12 2f be dc 5c 9b fe
       55 -12 -116 -13 -1 -24 33 -64 118 18 47 -66 -36 92 -101 -2
0000d0 e2 81 0f 9a d2 fc cd 39 d6 6a 4a 51 55 34 4e e2
       -30 -127 15 -102 -46 -4 -51 57 -42 106 74 81 85 52 78 -30
0000e0 d8 98 b9 1b 9a ec 93 dc 6b e6 bb e6 0c 0f 56 81
       -40 -104 -71 27 -102 -20 -109 -36 107 -26 -69 -26 12 15 86 -127
0000f0 28 b2 e1 df 0a 10 9c fa 06 f5 2e 9d 69 5b 22 a5
       40 -78 -31 -33 10 16 -100 -6 6 -11 46 -99 105 91 34 -91

model_1/quant_depthwise_conv2d_12/depthwise;model_1/quant_depthwise_conv2d_12/LastValueQuant/FakeQuantWithMinMaxVarsPerChannel i1 [1, 3, 3, 48]
000000 1c f6 ff e7 c7 0c e9 bd 09 dd 22 d2 15 e9 f1 db
       28 -10 -1 -25 -57 12 -23 -67 9 -35 34 -46 21 -23 -15 -37
000010 1d 0f 0e cf 2c 0d f4 02 38 da f7 fe ea e7 13 c5
       29 15 14 -49 44 13 -12 2 56 -38 -9 -2 -22 -25 19 -59
000020 25 fd 19 b0 e3 f7 d1 41 d4 db f0 11 fa 4d e8 d9
       37 -3 25 -80 -29 -9 -47 65 -44 -37 -16 17 -6 77 -24 -39
000030 35 0b 32 cc b7 d1 c9 db da de e2 bf d5 12 21 1f
       53 11 50 -52 -73 -47 -55 -37 -38 -34 -30 -65 -43 18 33 31
000040 3a 03 1a cc ee 0c f9 f4 11 f8 fa 0b c8 2f 15 05
       58 3 26 -52 -18 12 -7 -12 17 -8 -6 11 -56 47 21 5
000050 d8 21 19 e7 27 3e 1b 1c 12 05 2b f2 df e1 f7 59
       -40 33 25 -25 39 62 27 28 18 5 43 -14 -33 -31 -9 89
000060 b0 34 ef 09 15 0f c2 fb fd d9 15 f0 1b e6 f1 0e
       -80 52 -17 9 21 15 -62 -5 -3 -39 21 -16 27 -26 -15 14
000070 a7 e1 e8 12 e7 23 18 32 38 4b f3 29 1b 15 1a 50
       -89 -31 -24 18 -25 35 24 50 56 75 -13 41 27 21 26 80
000080 41 15 fc c9 db 27 03 db d0 31 1b f0 e5 ec 04 29
       65 21 -4 -55 -37 39 3 -37 -48 49 27 -16 -27 -20 4 41
000090 e6 c2 35 da cb 2b fd 9e 38 1c 34 dc e3 d0 ed 06
       -26 -62 53 -38 -53 43 -3 -98 56 28 52 -36 -29 -48 -19 6
0000a0 1a 12 17 04 11 bb cc e9 f1 2b fb f6 d3 2b 46 fe
       26 18 23 4 17 -69 -52 -23 -15 43 -5 -10 -45 43 70 -2
0000b0 e1 ba 11 ec 37 26 09 c6 1d f1 02 1b d3 e5 05 06
       -31 -70 17 -20 55 38 9 -58 29 -15 2 27 -45 -27 5 6
0000c0 1f 0e e4 11 e0 d2 2a fa 07 56 e7 0b ec 0f fa f3
       31 14 -28 17 -32 -46 42 -6 7 86 -25 11 -20 15 -6 -13
0000d0 fc 2e df cb 0b be 0c fe 1a cf e1 ca 08 fd 3c 2a
       -4 46 -33 -53 11 -66 12 -2 26 -49 -31 -54 8 -3 60 42
0000e0 dd ff 1e 1e 51 31 c9 fb f6 ea 22 2e 2f f6 da 40
       -35 -1 30 30 81 49 -55 -5 -10 -22 34 46 47 -10 -38 64
0000f0 da 05 51 1d e5 0f cc cb cb 0d 17 be f3 0b b5 08
       -38 5 81 29 -27 15 -52 -53 -53 13 23 -66 -13 11 -75 8

model_1/quant_conv2d_12/Conv2D;model_1/quant_conv2d_12/LastValueQuant/FakeQuantWithMinMaxVarsPerChannel i1 [64, 1, 1, 48]
000000 d0 5c 47 b0 f0 6f 91 81 1b cf b8 cc 77 6f c3 db
       -48 92 71 -80 -16 111 -111 -127 27 -49 -72 -52 119 111 -61 -37
000010 9b 37 6f 26 87 f5 b8 e3 54 27 c3 1b 72 be b0 48
       -101 55 111 38 -121 -11 -72 -29 84 39 -61 27 114 -66 -80 72
000020 fa 43 07 06 5d de 5b 43 cc 62 d8 f9 b0 27 3a b5
       -6 67 7 6 93 -34 91 67 -52 98 -40 -7 -80 39 58 -75
000030 f5 a9 dd 6a 03 c7 5f 2e 97 ed 11 0d 47 5e 41 1c
       -11 -87 -35 106 3 -57 95 46 -105 -19 17 13 71 94 65 28
000040 fe b0 55 10 fb b2 49 c8 1c ff 55 c4 c7 c6 47 c8
       -2 -80 85 16 -5 -78 73 -56 28 -1 85 -60 -57 -58 71 -56
000050 50 19 22 48 7f 26 b2 b9 52 9a 65 a8 5a 67 10 dc
       80 25 34 72 127 38 -78 -71 82 -102 101 -88 90 103 16 -36
000060 fd 54 c2 17 01 57 ae f6 cb 0e 60 60 e1 58 7f b2
       -3 84 -62 23 1 87 -82 -10 -53 14 96 96 -31 88 127 -78
000070 5b 1f d2 4b cd 4d a7 34 36 a7 ec b2 2e b3 33 c9
       91 31 -46 75 -51 77 -89 52 54 -89 -20 -78 46 -77 51 -55
000080 08 29 21 1d 0b b7 13 10 76 8d b5 3f c5 04 26 fe
       8 41 33 29 11 -73 19 16 118 -115 -75 63 -59 4 38 -2
000090 b1 bb b0 16 f9 8b 31 70 7b b4 38 70 20 d1 ff 4d
       -79 -69 -80 22 -7 -117 49 112 123 -76 56 112 32 -47 -1 77
0000a0 fd 1a 6a 57 50 ef 21 3a 9e 8b 8e f9 a9 53 fb fd
       -3 26 106 87 80 -17 33 58 -98 -117 -114 -7 -87 83 -5 -3
0000b0 a6 94 4e 7f d0 16 ff 5e 41 45 06 12 be ba 12 1a
       -90 -108 78 127 -48 22 -1 94 65 69 6 18 -66 -70 18 26
0000c0 da c6 bf 2d da e5 e1 30 c8 b9 df ef bd 1b cd 45
       -38 -58 -65 45 -38 -27 -31 48 -56 -71 -33 -17 -67 27 -51 69
0000d0 b4 49 ee 20 be d1 d9 2a c5 3e e3 d6 32 a7 9a 33
       -76 73 -18 32 -66 -47 -39 42 -59 62 -29 -42 50 -89 -102 51
0000e0 da 6c 44 a2 89 a5 35 49 43 a8 10 4f 7f 72 b5 b5
       -38 108 68 -94 -119 -91 53 73 67 -88 16 79 127 114 -75 -75
0000f0 30 77 ad 36 00 de 81 b3 d5 6b ce cf 58 3f d7 24
       48 119 -83 54 0 -34 -127 -77 -43 107 -50 -49 88 63 -41 36

model_1/quant_depthwise_conv2d_13/depthwise;model_1/quant_depthwise_conv2d_13/LastValueQuant/FakeQuantWithMinMaxVarsPerChannel i1 [1, 3, 3, 64]
000000 00 d6 c0 05 1a a1 f5 f4 23 11 df fc fe cf 19 3e
       0 -42 -64 5 26 -95 -11 -12 35 17 -33 -4 -2 -49 25 62
000010 10 2f d2 eb 0d fc f4 16 f9 fe 08 c9 f0 4d e0 fe
       16 47 -46 -21 13 -4 -12 22 -7 -2 8 -55 -16 77 -32 -2
000020 d3 1f f0 fb 25 b7 11 f6 e6 f4 05 e5 34 ff ce bf
       -45 31 -16 -5 37 -73 17 -10 -26 -12 5 -27 52 -1 -50 -65
000030 2f d3 e9 31 b4 cb 01 ca 2d fa da 03 fb 48 3c e2
       47 -45 -23 49 -76 -53 1 -54 45 -6 -38 3 -5 72 60 -30
000040 52 e2 01 ca 10 f3 24 e9 08 05 ea ca 2b bb 26 07
       82 -30 1 -54 16 -13 36 -23 8 5 -22 -54 43 -69 38 7
000050 e8 d8 ef 2a d9 36 21 da 2f d0 28 cc 37 fc 18 0a
       -24 -40 -17 42 -39 54 33 -38 47 -48 40 -52 55 -4 24 10
000060 d8 3f 0e 36 f4 d4 c6 d8 ee c4 29 e4 3a da da 18
       -40 63 14 54 -12 -44 -58 -40 -18 -60 41 -28 58 -38 -38 24
000070 df e1 fa e5 43 e1 54 e3 19 da 1e 26 a9 ef 1d c9
       -33 -31 -6 -27 67 -31 84 -29 25 -38 30 38 -87 -17 29 -55
000080 0f 1c 08 f0 2f f6 18 05 a8 bc 07 48 cd 10 57 e6
       15 28 8 -16 47 -10 24 5 -88 -68 7 72 -51 16 87 -26
000090 28 c5 c5 f9 01 40 a5 1a 3e 21 0d 00 e9 ef e9 17
       40 -59 -59 -7 1 64 -91 26 62 33 13 0 -23 -17 -23 23
0000a0 59 22 27 b9 2f fe 41 f1 1a d3 d8 45 e9 d4 08 f7
       89 34 39 -71 47 -2 65 -15 26 -45 -40 69 -23 -44 8 -9
0000b0 3f 03 f8 e0 3b 34 55 4e de de 23 cf c3 f6 d8 df
       63 3 -8 -32 59 52 85 78 -34 -34 35 -49 -61 -10 -40 -33
0000c0 fe 32 fd 11 05 cc eb f2 dc c4 fd da 16 c0 e3 f1
       -2 50 -3 17 5 -52 -21 -14 -36 -60 -3 -38 22 -64 -29 -15
0000d0 31 07 e2 17 19 f9 e6 d8 13 0d f2 42 ef 08 e0 f8
       49 7 -30 23 25 -7 -26 -40 19 13 -14 66 -17 8 -32 -8
0000e0 26 14 28 14 12 3d cd d5 d0 26 cb c4 3a 3c c6 2f
       38 20 40 20 18 61 -51 -43 -48 38 -53 -60 58 60 -58 47
0000f0 d5 fa 17 f7 21 d1 e3 f6 e4 b4 e5 db 28 e6 4c 10
       -43 -6 23 -9 33 -47 -29 -10 -28 -76 -27 -37 40 -26 76 16

model_1/quant_conv2d_13/Conv2D;model_1/quant_conv2d_13/LastValueQuant/FakeQuantWithMinMaxVarsPerChannel i1 [64, 1, 1, 64]
000000 be e8 fa 63 d5 d0 e3 a2 69 ba b9 1d 1a 93 3d 3b
       -66 -24 -6 99 -43 -48 -29 -94 105 -70 -71 29 26 -109 61 59
000010 7f 21 a7 ef 23 5c b7 dc 3a c2 82 f2 05 b1 9f 59
       127 33 -89 -17 35 92 -73 -36 58 -62 -126 -14 5 -79 -97 89
000020 b2 4f cd b6 9d b3 c4 d8 18 af ad ca 8d a1 2d fc
       -78 79 -51 -74 -99 -77 -60 -40 24 -81 -83 -54 -115 -95 45 -4
000030 b9 f0 69 89 50 84 59 51 bf d5 19 eb f7 1b 28 d3
       -71 -16 105 -119 80 -124 89 81 -65 -43 25 -21 -9 27 40 -45
000040 12 49 d8 c7 be a1 ec 1e 9a a3 dc 30 10 0c d0 f4
       18 73 -40 -57 -66 -95 -20 30 -102 -93 -36 48 16 12 -48 -12
000050 e3 4d f2 65 bd d5 aa 25 5e 15 b4 b8 b5 ab 5a 40
       -29 77 -14 101 -67 -43 -86 37 94 21 -76 -72 -75 -85 90 64
000060 f8 e8 31 a4 4a 32 be da 51 68 9a e7 54 9b db 17
       -8 -24 49 -92 74 50 -66 -38 81 104 -102 -25 84 -101 -37 23
000070 36 af 91 a9 02 ff cb 2c 61 81 e8 9a 5d bb 0c d1
       54 -81 -111 -87 2 -1 -53 44 97 -127 -24 -102 93 -69 12 -47
000080 e0 fc 55 3a 9b ca 22 a2 39 c8 b4 6b ed 09 42 c7
       -32 -4 85 58 -101 -54 34 -94 57 -56 -76 107 -19 9 66 -57
000090 16 b8 dc 4e 54 93 61 55 17 26 c8 a6 c6 a6 19 24
       22 -72 -36 78 84 -109 97 85 23 38 -56 -90 -58 -90 25 36
0000a0 e0 42 45 d8 ac c4 87 4e b6 e8 3e b7 39 a6 73 da
       -32 66 69 -40 -84 -60 -121 78 -74 -24 62 -73 57 -90 115 -38
0000b0 b1 1d ae 8e ae 89 7f f3 28 52 be 42 d2 3c 0a b5
       -79 29 -82 -114 -82 -119 127 -13 40 82 -66 66 -46 60 10 -75
0000c0 6d 42 61 0f 06 4e 48 ad c6 b4 10 ab 8c eb 16 e7
       109 66 97 15 6 78 72 -83 -58 -76 16 -85 -116 -21 22 -25
0000d0 9d 83 a9 be 60 4e 2c 03 c9 b6 98 c7 f9 c6 68 ee
       -99 -125 -87 -66 96 78 44 3 -55 -74 -104 -57 -7 -58 104 -18
0000e0 32 56 32 69 52 cc 2f 00 4f 35 16 11 ff 4e 9f 72
       50 86 50 105 82 -52 47 0 79 53 22 17 -1 78 -97 114
0000f0 48 ba e5 f0 ce 51 02 d6 19 63 81 35 34 1d 7d f3
       72 -70 -27 -16 -50 81 2 -42 25 99 -127 53 52 29 125 -13

model_1/quant_Conv2D_2_part_2/Conv2D;model_1/quant_Conv2D_2_part_2/LastValueQuant/FakeQuantWithMinMaxVarsPerChannel i1 [64, 1, 1, 48]
000000 2d b8 f5 33 79 4f 60 df 48 71 16 7b 35 ce 0f d8
       45 -72 -11 51 121 79 96 -33 72 113 22 123 53 -50 15 -40
000010 f0 f2 4f 78 0d e8 5e 09 13 e4 f4 62 02 07 2f 1b
       -16 -14 79 120 13 -24 94 9 19 -28 -12 98 2 7 47 27
000020 f0 46 c9 9e 81 15 57 b0 74 5f 6b af 09 25 f7 86
       -16 70 -55 -98 -127 21 87 -80 116 95 107 -81 9 37 -9 -122
000030 35 ca a7 35 c9 a6 f9 98 e5 12 30 bf bb 3e 50 3e
       53 -54 -89 53 -55 -90 -7 -104 -27 18 48 -65 -69 62 80 62
000040 99 5a 30 a0 69 a4 73 3a aa b9 bb 1d f3 35 fe 10
       -103 90 48 -96 105 -92 115 58 -86 -71 -69 29 -13 53 -2 16
000050 67 7f b4 b5 f5 99 aa 16 46 68 e8 48 2a b4 ed ee
       103 127 -76 -75 -11 -103 -86 22 70 104 -24 72 42 -76 -19 -18
000060 ca 8f 8c 00 97 67 6d ce 97 65 7b 15 e4 2a 42 73
       -54 -113 -116 0 -105 103 109 -50 -105 101 123 21 -28 42 66 115
000070 bd c4 81 d0 e8 a4 d1 06 5d 8a 58 17 d8 85 a3 19
       -67 -60 -127 -48 -24 -92 -47 6 93 -118 88 23 -40 -123 -93 25
000080 82 e4 09 e9 41 46 85 57 90 10 9f e8 24 4f 01 89
       -126 -28 9 -23 65 70 -123 87 -112 16 -97 -24 36 79 1 -119
000090 e3 05 98 c4 16 b5 26 a9 98 04 42 5a 34 10 ed f1
       -29 5 -104 -60 22 -75 38 -87 -104 4 66 90 52 16 -19 -15
0000a0 98 4a cb 47 42 d3 1a d6 81 cd 8b af fe 66 a8 8f
       -104 74 -53 71 66 -45 26 -42 -127 -51 -117 -81 -2 102 -88 -113
0000b0 1a 29 b6 d2 49 ac a3 66 57 de 7e ec 6d 0d 31 e3
       26 41 -74 -46 73 -84 -93 102 87 -34 126 -20 109 13 49 -29
0000c0 8d ac a2 b1 3f 9a 4e df 1d 49 f7 33 1a d2 1f 15
       -115 -84 -94 -79 63 -102 78 -33 29 73 -9 51 26 -46 31 21
0000d0 f7 42 29 81 e0 c2 d5 60 a6 c5 fb cf 8c a9 37 1b
       -9 66 41 -127 -32 -62 -43 96 -90 -59 -5 -49 -116 -87 55 27
0000e0 6a 6c b2 b8 87 92 f8 fd 4d 0c 60 df a7 b0 35 1a
       106 108 -78 -72 -121 -110 -8 -3 77 12 96 -33 -89 -80 53 26
0000f0 bc 57 63 e7 6a e8 a5 9f 40 bb 12 29 6b 1f a9 d1
       -68 87 99 -25 106 -24 -91 -97 64 -69 18 41 107 31 -87 -47

model_1/quant_depthwise_conv2d_14/depthwise;model_1/quant_depthwise_conv2d_14/LastValueQuant/FakeQuantWithMinMaxVarsPerChannel i1 [1, 3, 3, 64]
000000 d6 16 00 ef 06 37 44 3c 04 0d fc 0d cf d4 df c2
       -42 22 0 -17 6 55 68 60 4 13 -4 13 -49 -44 -33 -62
000010 1c df 2d 41 06 cc cf b8 14 18 bd d9 c0 58 e2 2e
       28 -33 45 65 6 -52 -49 -72 20 24 -67 -39 -64 88 -30 46
000020 bc 1a 02 df 03 ca c7 2c aa cc 2b 42 2c 00 b7 f5
       -68 26 2 -33 3 -54 -57 44 -86 -52 43 66 44 0 -73 -11
000030 f9 1c db f2 3f 16 e0 cb 42 19 27 ad 07 0f 24 00
       -7 28 -37 -14 63 22 -32 -53 66 25 39 -83 7 15 36 0
000040 22 0c ec 19 b5 3c 2d f5 c1 17 bb ca d2 f8 26 0e
       34 12 -20 25 -75 60 45 -11 -63 23 -69 -54 -46 -8 38 14
000050 e6 b0 db d9 23 0a d6 47 22 c0 0f 14 42 34 21 a7
       -26 -80 -37 -39 35 10 -42 71 34 -64 15 20 66 52 33 -89
000060 af d8 15 d2 de fb 3d f2 ba 2a c9 21 2f df 20 41
       -81 -40 21 -46 -34 -5 61 -14 -70 42 -55 33 47 -33 32 65
000070 0c c8 35 28 0f 3e 0e 26 3f b8 ac 20 07 27 36 ca
       12 -56 53 40 15 62 14 38 63 -72 -84 32 7 39 54 -54
000080 e8 37 dd eb 26 bf 30 15 db 60 28 01 eb cf f7 c5
       -24 55 -35 -21 38 -65 48 21 -37 96 40 1 -21 -49 -9 -59
000090 e2 d6 07 fd f4 bc 2e 3a 75 47 f1 0c df 55 17 14
       -30 -42 7 -3 -12 -68 46 58 117 71 -15 12 -33 85 23 20
0000a0 f5 2d 05 15 30 be df e4 01 e8 f0 42 0f 54 15 ae
       -11 45 5 21 48 -66 -33 -28 1 -24 -16 66 15 84 21 -82
0000b0 0a bf 0b 2a 17 ef bc fe 1c 16 67 fa 27 d0 11 f7
       10 -65 11 42 23 -17 -68 -2 28 22 103 -6 39 -48 17 -9
0000c0 c3 db ed 13 1e b6 16 d7 37 bb cd 6a 2f e4 23 35
       -61 -37 -19 19 30 -74 22 -41 55 -69 -51 106 47 -28 35 53
0000d0 f1 d1 21 d2 f6 e0 9b f7 f7 d9 cd 18 3c 20 12 39
       -15 -47 33 -46 -10 -32 -101 -9 -9 -39 -51 24 60 32 18 57
0000e0 2e 29 f3 21 3d 3b d0 fa 26 d1 61 fb 0c b3 f6 01
       46 41 -13 33 61 59 -48 -6 38 -47 97 -5 12 -77 -10 1
0000f0 ee bc 43 4a dd f7 47 3f d4 cb 0e e7 08 17 32 09
       -18 -68 67 74 -35 -9 71 63 -44 -53 14 -25 8 23 50 9

model_1/quant_conv2d_14/Conv2D;model_1/quant_conv2d_14/LastValueQuant/FakeQuantWithMinMaxVarsPerChannel i1 [98, 1, 1, 64]
000000 08 2d 56 00 60 07 15 bd ab bb d7 a4 52 23 ef bc
       8 45 86 0 96 7 21 -67 -85 -69 -41 -92 82 35 -17 -68
000010 2e 37 d1 b9 5c 81 7e b9 26 c0 d3 ae ca 54 ea f6
       46 55 -47 -71 92 -127 126 -71 38 -64 -45 -82 -54 84 -22 -10
000020 06 4c 68 e0 2c da 9a bc 21 fe 1d 32 45 de eb 18
       6 76 104 -32 44 -38 -102 -68 33 -2 29 50 69 -34 -21 24
000030 66 c3 1b 3e d8 de 02 ba 12 69 31 bc a8 af 6e 44
       102 -61 27 62 -40 -34 2 -70 18 105 49 -68 -88 -81 110 68
000040 5b a1 35 af 81 47 ce 16 d0 1d d5 c4 89 c3 46 38
       91 -95 53 -81 -127 71 -50 22 -48 29 -43 -60 -119 -61 70 56
000050 4f 1e dc f4 1b e6 1d ed 47 0f 08 16 b3 51 5d b7
       79 30 -36 -12 27 -26 29 -19 71 15 8 22 -77 81 93 -73
000060 55 a6 97 54 b2 f5 b3 56 17 2f c7 fd af d1 20 d0
       85 -90 -105 84 -78 -11 -77 86 23 47 -57 -3 -81 -47 32 -48
000070 96 01 b2 17 f4 3d b7 1a f6 40 34 14 7a b3 55 df
       -106 1 -78 23 -12 61 -73 26 -10 64 52 20 122 -77 85 -33
000080 1a e4 3e c4 a6 19 1c 05 fb dc 06 f1 b2 1e ba cf
       26 -28 62 -60 -90 25 28 5 -5 -36 6 -15 -78 30 -70 -49
000090 4f 45 23 13 20 95 11 f7 0f c5 cb 55 b4 a6 14 3f
       79 69 35 19 32 -107 17 -9 15 -59 -53 85 -76 -90 20 63
0000a0 a2 20 d4 b5 d8 a3 4a 4a 33 81 33 ae dd 11 3a 44
       -94 32 -44 -75 -40 -93 74 74 51 -127 51 -82 -35 17 58 68
0000b0 b4 d9 3b c0 df 4a c1 ec 37 f3 cf c5 21 0f f0 ba
       -76 -39 59 -64 -33 74 -63 -20 55 -13 -49 -59 33 15 -16 -70
0000c0 4c c5 56 ff c6 ae 44 26 9b ba cb e4 b3 79 e9 33
       76 -59 86 -1 -58 -82 68 38 -101 -70 -53 -28 -77 121 -23 51
0000d0 ec fd 24 b7 61 c3 88 81 31 24 29 bb 46 25 e3 cc
       -20 -3 36 -73 97 -61 -120 -127 49 36 41 -69 70 37 -29 -52
0000e0 97 f2 85 20 90 a9 6f c9 4c f0 2b 5f 6b 01 4f 21
       -105 -14 -123 32 -112 -87 111 -55 76 -16 43 95 107 1 79 33
0000f0 42 c0 3d 14 b7 f5 5b 56 3f b7 2c 29 75 f4 67 98
       66 -64 61 20 -73 -11 91 86 63 -73 44 41 117 -12 103 -104

model_1/quant_depthwise_conv2d_15/depthwise;model_1/quant_depthwise_conv2d_15/LastValueQuant/FakeQuantWithMinMaxVarsPerChannel i1 [1, 3, 3, 98]
000000 0e 30 df eb d6 f9 40 50 29 d6 ee ca 38 24 fa e4
       14 48 -33 -21 -42 -7 64 80 41 -42 -18 -54 56 36 -6 -28
000010 22 22 d2 dd f3 00 04 d0 fd 14 f6 09 f4 0f 0c e5
       34 34 -46 -35 -13 0 4 -48 -3 20 -10 9 -12 15 12 -27
000020 32 db d2 f8 d6 18 e4 bb fa dd f5 0f e8 d6 1d cc
       50 -37 -46 -8 -42 24 -28 -69 -6 -35 -11 15 -24 -42 29 -52
000030 cd 53 fa e0 e5 da 2f ed 33 2b 3c 11 0d e5 e9 c5
       -51 83 -6 -32 -27 -38 47 -19 51 43 60 17 13 -27 -23 -59
000040 01 29 d8 e0 ea 1a 32 ff 33 ba e8 cf d5 25 f4 fe
       1 41 -40 -32 -22 26 50 -1 51 -70 -24 -49 -43 37 -12 -2
000050 2f 32 d1 e1 fe f8 03 e8 20 fd e9 26 0a de ea ed
       47 50 -47 -31 -2 -8 3 -24 32 -3 -23 38 10 -34 -22 -19
000060 48 c6 fc e0 e1 3a fa 0b 1d 11 e1 cf 18 12 de a6
       72 -58 -4 -32 -31 58 -6 11 29 17 -31 -49 24 18 -34 -90
000070 e9 3a 0d 31 ee 18 24 2f 24 bf ed d3 13 ed 02 e2
       -23 58 13 49 -18 24 36 47 36 -65 -19 -45 19 -19 2 -30
000080 c7 19 d0 23 d7 d3 ce fc fc 13 23 28 48 24 3f 11
       -57 25 -48 35 -41 -45 -50 -4 -4 19 35 40 72 36 63 17
000090 da 05 e2 04 02 1e 0b 27 28 09 e2 ff 13 c2 d1 eb
       -38 5 -30 4 2 30 11 39 40 9 -30 -1 19 -62 -47 -21
0000a0 e1 a9 15 fa d8 41 d3 12 0d f7 29 21 19 30 49 f9
       -31 -87 21 -6 -40 65 -45 18 13 -9 41 33 25 48 73 -7
0000b0 fc f5 d2 43 0c e8 ff e5 fa 20 fe 47 05 e5 e0 e7
       -4 -11 -46 67 12 -24 -1 -27 -6 32 -2 71 5 -27 -32 -25
0000c0 33 dd fb bc 52 08 28 e4 0d 1a f9 db 20 03 0c ec
       51 -35 -5 -68 82 8 40 -28 13 26 -7 -37 32 3 12 -20
0000d0 21 1e 1d f6 04 33 e9 f8 0c d6 d4 c3 ef d5 25 1b
       33 30 29 -10 4 51 -23 -8 12 -42 -44 -61 -17 -43 37 27
0000e0 04 c4 be 00 bc 2d 17 e5 3e 1e ed d1 1e 33 e6 fc
       4 -60 -66 0 -68 45 23 -27 62 30 -19 -47 30 51 -26 -4
0000f0 c8 03 dc 36 e6 41 37 de e4 ff 3a d9 d0 db c9 f5
       -56 3 -36 54 -26 65 55 -34 -28 -1 58 -39 -48 -37 -55 -11

model_1/quant_conv2d_15/Conv2D;model_1/quant_conv2d_15/LastValueQuant/FakeQuantWithMinMaxVarsPerChannel i1 [98, 1, 1, 98]
000000 0b c0 47 65 b5 0a 59 dd 40 54 48 bb b1 22 07 3f
       11 -64 71 101 -75 10 89 -35 64 84 72 -69 -79 34 7 63
000010 be ca 66 d7 c1 c7 bd 2e c8 01 06 06 c3 db cc 03
       -66 -54 102 -41 -63 -57 -67 46 -56 1 6 6 -61 -37 -52 3
000020 f2 f3 07 db 7f c6 c5 55 31 40 4d 28 3d 64 e0 f5
       -14 -13 7 -37 127 -58 -59 85 49 64 77 40 61 100 -32 -11
000030 3b 57 66 50 b1 53 0c dc c7 34 be bc 5f f5 e0 08
       59 87 102 80 -79 83 12 -36 -57 52 -66 -68 95 -11 -32 8
000040 2b 52 af 66 46 7b bd 11 03 95 34 71 4b 55 e0 dd
       43 82 -81 102 70 123 -67 17 3 -107 52 113 75 85 -32 -35
000050 53 72 a4 65 f4 9b 3e cd dd fd f4 29 88 5d 28 21
       83 114 -92 101 -12 -101 62 -51 -35 -3 -12 41 -120 93 40 33
000060 de f7 32 55 07 91 d3 bf c2 b0 a9 24 40 32 1d da
       -34 -9 50 85 7 -111 -45 -65 -62 -80 -87 36 64 50 29 -38
000070 9d aa 0f 26 ce b4 eb b0 00 d7 dd f5 33 ab 0d b8
       -99 -86 15 38 -50 -76 -21 -80 0 -41 -35 -11 51 -85 13 -72
000080 09 cb 6e 7f e5 bc bb b8 26 5a 5d bb 20 e6 e4 03
       9 -53 110 127 -27 -68 -69 -72 38 90 93 -69 32 -26 -28 3
000090 ac c0 f2 48 b2 f6 96 c8 33 0a 5a af ba dc 51 d7
       -84 -64 -14 72 -78 -10 -106 -56 51 10 90 -81 -70 -36 81 -41
0000a0 33 39 02 94 cd ca b2 9b bc 0f d7 19 07 0e a8 a8
       51 57 2 -108 -51 -54 -78 -101 -68 15 -41 25 7 14 -88 -88
0000b0 20 65 55 34 d4 34 a9 b2 91 9b 46 39 04 c7 0d f1
       32 101 85 52 -44 52 -87 -78 -111 -101 70 57 4 -57 13 -15
0000c0 c3 9d 31 59 b0 7f d6 d8 5d 40 22 a0 fa 2e c1 e2
       -61 -99 49 89 -80 127 -42 -40 93 64 34 -96 -6 46 -63 -30
0000d0 67 71 9f 95 9e 1e d4 73 19 03 4e 46 db 2a a7 66
       103 113 -97 -107 -98 30 -44 115 25 3 78 70 -37 42 -89 102
0000e0 b6 4a 5b fc 48 d6 c9 2f ef 25 05 38 c9 95 d9 26
       -74 74 91 -4 72 -42 -55 47 -17 37 5 56 -55 -107 -39 38
0000f0 ed b9 3e 0c fc 3e ab a3 11 45 62 a7 20 64 54 38
       -19 -71 62 12 -4 62 -85 -93 17 69 98 -89 32 100 84 56

model_1/quant_Conv2D_3_part_2/Conv2D;model_1/quant_Conv2D_3_part_2/LastValueQuant/FakeQuantWithMinMaxVarsPerChannel i1 [98, 1, 1, 64]
000000 33 e2 0f db 50 fc fd 21 5b 00 35 e6 03 05 19 f4
       51 -30 15 -37 80 -4 -3 33 91 0 53 -26 3 5 25 -12
000010 7f 33 e8 ef cb 0e a0 cb cd 4f 7f 62 f7 2c f3 52
       127 51 -24 -17 -53 14 -96 -53 -51 79 127 98 -9 44 -13 82
000020 69 0d 0e 6e b8 30 60 9a 15 bf 53 c8 f8 bc a6 8e
       105 13 14 110 -72 48 96 -102 21 -65 83 -56 -8 -68 -90 -114
000030 b9 29 50 2b 91 5f a1 b0 a4 09 8c 69 c2 a5 c3 62
       -71 41 80 43 -111 95 -95 -80 -92 9 -116 105 -62 -91 -61 98
000040 47 23 b7 b6 43 b7 61 e5 cf 12 08 f1 74 5e 18 0c
       71 35 -73 -74 67 -73 97 -27 -49 18 8 -15 116 94 24 12
000050 b9 6a 1e 7d ff 51 25 e4 fc ea 96 27 f5 cb 33 af
       -71 106 30 125 -1 81 37 -28 -4 -22 -106 39 -11 -53 51 -81
000060 d8 51 bb 0a 97 99 e1 f2 c0 cf c7 f0 44 39 6e fd
       -40 81 -69 10 -105 -103 -31 -14 -64 -49 -57 -16 68 57 110 -3
000070 bb ec 8f a6 02 b6 0a 8f ed 15 24 81 90 1c 98 af
       -69 -20 -113 -90 2 -74 10 -113 -19 21 36 -127 -112 28 -104 -81
000080 b0 f6 cb 84 d6 9d 05 cf b0 5b 9e 5a 42 ec 1f cb
       -80 -10 -53 -124 -42 -99 5 -49 -80 91 -98 90 66 -20 31 -53
000090 2d ff 22 9e be 81 05 ea 68 aa c6 f6 4c ff f4 76
       45 -1 34 -98 -66 -127 5 -22 104 -86 -58 -10 76 -1 -12 118
0000a0 21 fa 48 15 e8 c6 8e e0 b6 e9 61 61 3e 6f f6 df
       33 -6 72 21 -24 -58 -114 -32 -74 -23 97 97 62 111 -10 -33
0000b0 f0 a3 6c 2e 5a 9c 29 aa 2e 1e 3a f9 3b 4f 5e 12
       -16 -93 108 46 90 -100 41 -86 46 30 58 -7 59 79 94 18
0000c0 e3 9a b4 e8 df 37 4d 15 c0 b5 e5 e3 5f e5 5b 95
       -29 -102 -76 -24 -33 55 77 21 -64 -75 -27 -29 95 -27 91 -107
0000d0 9b a1 08 d7 30 ff d6 f4 09 28 b7 fd cc 2f 11 ec
       -101 -95 8 -41 48 -1 -42 -12 9 40 -73 -3 -52 47 17 -20
0000e0 29 4f 1e b1 73 36 b8 08 62 41 a4 65 3c 3c 41 3d
       41 79 30 -79 115 54 -72 8 98 65 -92 101 60 60 65 61
0000f0 da 65 a9 58 3b 35 7f 95 79 e1 3d 49 d5 36 23 99
       -38 101 -87 88 59 53 127 -107 121 -31 61 73 -43 54 35 -103

model_1/quant_final_dense_output/MatMul;model_1/quant_final_dense_output/LastValueQuant/FakeQuantWithMinMaxVars i1 [2, 40] scale=0.0024243302 zero_point=0
000000 e1 a4 e8 0e 28 c2 c5 26 12 0e 4a fe 49 ce 06 c6
       -0.07515424 -0.22303838 -0.058183923 0.033940624 0.09697321 -0.15030847 -0.14303549 0.09212455 0.043637943 0.033940624 0.17940043 -0.0048486604 0.1769761 -0.12121651 0.014545981 -0.14061116
000010 a1 2e 49 1b 40 01 00 8d b7 da a7 55 01 ba 94 99
       -0.23031136 0.11151919 0.1769761 0.06545692 0.15515713 0.0024243302 0.0 -0.27879798 -0.1769761 -0.09212455 -0.21576539 0.20606807 0.0024243302 -0.16970311 -0.26182768 -0.24970601
000020 ef 33 84 34 04 b2 ec 55 2c db 04 11 eb f3 11 71
       -0.041213613 0.12364084 -0.30061695 0.12606516 0.009697321 -0.18909776 -0.048486605 0.20606807 0.10667053 -0.089700215 0.009697321 0.041213613 -0.050910935 -0.03151629 0.041213613 0.27394933
000030 bf 46 38 e6 3e 3a f6 dd 81 dd 0f ed ea c5 16 c3
       -0.15758146 0.16970311 0.1357625 -0.06303258 0.15030847 0.14061116 -0.024243303 -0.084851556 -0.30788994 -0.084851556 0.036364954 -0.046062276 -0.053335264 -0.14303549 0.053335264 -0.14788415
000040 d7 08 c4 3d 02 fb d0 d7 40 ca 81 ed e2 e5 e2 69
       -0.09939754 0.019394642 -0.14545982 0.14788415 0.0048486604 -0.012121651 -0.11636785 -0.09939754 0.15515713 -0.13091384 -0.30788994 -0.046062276 -0.07272991 -0.06545692 -0.07272991 0.25455466
